models/seven_net.pth (torch_old, 8138 bytes, 4 tensors)

net.0.weight f4 [42, 21]
000000 7f 7d a1 bd 7d 8d 92 be 7a 17 31 be b4 3d 8f bd
       -0.078852646 -0.28623572 -0.17294112 -0.06994191
000010 3d 55 9a 3d 87 16 8c bc 5d bb 3b be 26 29 a5 bd
       0.07535789 -0.017100586 -0.18333192 -0.08064489
000020 7b c6 61 bd 56 a7 0b be 1c 8d 30 bd 56 15 9c 3d
       -0.055120926 -0.13638052 -0.043103322 0.07621257
000030 b9 fa 46 3e 67 a9 4b 3e 78 b8 08 bc 8c b7 22 be
       0.1943158 0.1988884 -0.008344762 -0.1589033
000040 0c ed af bd a1 80 9d 3e 9c 74 50 3e 2e af 8b 3d
       -0.08590135 0.307622 0.20356983 0.06820522
000050 b8 85 6c 3d dd bc fa be 59 e1 9d 3e ba 5d c5 be
       0.05774471 -0.48972216 0.3083599 -0.3854807
000060 13 62 46 3e 81 0d bf be af 25 2b be ba 76 97 3e
       0.1937335 -0.3731499 -0.16713594 0.2958277
000070 b5 64 0e be 60 f4 49 be 53 29 9d 3e 92 3c 55 3e
       -0.13905604 -0.19722128 0.3069559 0.20823887
000080 a0 8c aa be 56 f0 1d be a8 03 3b 3e 94 fe ec 3d
       -0.33310413 -0.15423712 0.18263113 0.115719944
000090 69 81 38 3e e3 4e 90 3e e0 2f 77 3d 35 88 b2 3e
       0.18018116 0.28185186 0.06034839 0.34869543
0000a0 e3 04 cc bb 2b 20 0c bd bc 5f b3 be b5 ed 14 bb
       -0.0062261685 -0.034210365 -0.35033977 -0.0022724692
0000b0 e0 68 6d 3e 20 25 3a be 27 65 ac bd 4e 3c 10 be
       0.23184538 -0.18178225 -0.08417731 -0.14085504
0000c0 16 a9 7b be b1 32 c2 3e 88 39 bc bd 33 0c 39 3e
       -0.2457622 0.379293 -0.09190661 0.1807106
0000d0 0c 23 50 be 59 0f db 3d 22 cd 4c 3d 8c fb 8b be
       -0.2032587 0.10696287 0.050000317 -0.27340353
0000e0 7a 36 b8 be 7d 8d d4 3c 67 2b b8 3e 30 d0 2f 3d
       -0.35979062 0.025946373 0.35970613 0.042923152
0000f0 94 10 20 bb d2 10 6e 3c 56 be e4 3d 52 ad fe 3d
       -0.0024423944 0.014530377 0.11169116 0.12435402
000100 43 a5 23 3e 3e a7 4f 3d f2 56 8c be af b9 0f 3e
       0.15981011 0.050696604 -0.27410084 0.14035676
000110 15 2f 14 be 77 65 b6 3d a0 2a 0c be 58 cb 33 3e
       -0.14471085 0.08906072 -0.13688135 0.17558038
000120 cb be 65 3e 71 5b 17 3e 10 68 5f bc f6 06 af 3e
       0.22436063 0.14780976 -0.01363565 0.34184998
000130 26 c9 47 be da d0 cc be 19 50 d0 be e3 c2 1f 3e
       -0.19510326 -0.4000309 -0.4068611 0.15601687
000140 84 f3 6b 3e 3f 1b 50 3d c2 4f 21 3d 09 d6 ea 3d
       0.23042113 0.050807234 0.039382704 0.11466605
000150 60 dd 5a bd 92 69 33 3e 77 dc 02 be c8 e4 2b 3e
       -0.053433776 0.1752074 -0.12779413 0.16786492
000160 a7 e9 b4 3d 9b e2 32 3e ca 69 b1 be bb b6 2c bc
       0.08833628 0.17469256 -0.34651023 -0.010541613
000170 90 9d c5 bd 61 0e 66 be 43 a5 68 bd ec 53 2a be
       -0.09649193 -0.22466423 -0.05679823 -0.16633576
000180 44 15 49 be 1b 62 39 3e 41 66 ba bd 8d d0 0b 3e
       -0.19637018 0.1810383 -0.09101535 0.13653775
000190 f1 49 a1 bd 39 61 b7 be 17 bf 75 be 49 73 2f be
       -0.07875431 -0.35816363 -0.23998676 -0.17133822
0001a0 b6 38 3d 3e 26 8b d7 3e 86 9c a4 bc 7d 6c 42 3e
       0.18478665 0.4209835 -0.020094167 0.18986697
0001b0 c9 c5 16 bc c5 8e 25 3e 6a c8 94 be 09 91 3f be
       -0.009202429 0.16167744 -0.29059154 -0.1870767
0001c0 df 98 0d 3c 3b 81 41 3e 1f fc f8 bd c1 02 3b 3d
       0.008642404 0.18896954 -0.12157463 0.045656923
0001d0 86 45 80 3d 4a 16 0c 3e 09 1f b7 be ee 9f 24 3e
       0.062632605 0.13680378 -0.35765865 0.16076633
0001e0 85 cc 27 3e 45 2d 91 bd c5 fe 8c 3e 61 63 70 be
       0.16386612 -0.070887126 0.27538124 -0.2347541
0001f0 80 65 ae 3e 43 44 f4 3d 9f 72 b1 bd f6 da 12 be
       0.34061813 0.119270824 -0.0866444 -0.1434134
000200 ff 47 73 3e 52 b2 ca bd 01 eb 38 3e fd 1c b2 bd
       0.23757933 -0.09897293 0.18058397 -0.08696935
000210 b3 9a 9d 3d 7a 56 79 bd 84 67 33 bd 37 68 67 be
       0.07695522 -0.060873486 -0.043799892 -0.22598349
000220 d7 ed 81 be 0b 5e 2c 3e 5d e0 ca 3d 9b 05 07 be
       -0.2537677 0.1683275 0.09906075 -0.13185732
000230 30 01 7c 3e 12 02 bc 3d 3c ec 3c 3d 04 2b 49 be
       0.24609828 0.091800824 0.04612373 -0.19645315
000240 c7 58 85 bd af 16 5e be 26 bf 0c 3d 3b 81 a6 3e
       -0.065110736 -0.2168834 0.03436198 0.3252047
000250 c7 c9 90 bd d2 6d 51 3e ba 42 75 be 45 ac f0 be
       -0.07069736 0.2045205 -0.23951235 -0.4700643
000260 b8 f8 be be 8e 1d 8a 3d 65 53 15 be 87 74 02 bd
       -0.37299132 0.06743918 -0.14582594 -0.03184941
000270 54 f6 69 be 23 4d 8d 3e df 1e 5b 3c 1b f2 2d 3d
       -0.22847873 0.27597913 0.013374059 0.042467218
000280 45 b3 a1 bd fc b0 1e be 30 54 71 be 73 3b c4 3d
       -0.07895521 -0.15497202 -0.23567271 0.095816515
000290 34 ce 2e 3d 62 c5 eb bd b2 f7 60 3d f3 9c 90 bc
       0.04267712 -0.11512257 0.05492372 -0.017652964
0002a0 3f 97 74 3d ac 0c 97 bc 61 cf 91 3e 7f 94 18 be
       0.059714552 -0.01843866 0.2847853 -0.14900397
0002b0 57 14 c9 bd fb 27 03 be 10 aa a9 be ba 43 97 bc
       -0.09818333 -0.1280822 -0.3313756 -0.018464912
0002c0 15 4a 78 be d1 2d 99 3e a3 c1 04 3e e3 06 0c 3e
       -0.2424701 0.29917768 0.12964492 0.13674502
0002d0 4b e3 f2 bb 93 f1 97 bc f4 50 ee 3c 58 5a 88 3e
       -0.0074123493 -0.018547809 0.029091336 0.26631427
0002e0 c3 14 bd 3d 47 b9 00 3e f2 06 a0 3e ee 84 9d 3d
       0.092324756 0.12570678 0.312553 0.0769137
0002f0 41 8c 51 3d c8 58 93 3c 73 24 fa bd 60 96 8f bd
       0.051159147 0.01798667 -0.122139834 -0.07011104
000300 b8 86 df 3c 4f 38 5d 3e 2c 44 ee 3e 1d a4 31 be
       0.027285919 0.21603511 0.46536386 -0.1734776
000310 8e b5 26 bc a6 25 83 be 18 7d 69 3e 2f a3 a9 3d
       -0.010175122 -0.2561466 0.22801626 0.08283078
000320 1c 13 d3 3d 69 8a 68 3e 10 ef 79 be 24 3a 64 3d
       0.10306379 0.2270905 -0.24407601 0.05571951
000330 8f 57 9f be 0b 4d 82 be 65 e1 2b be 8f 63 84 be
       -0.3112149 -0.25449404 -0.167852 -0.25857207
000340 b1 4a 7e 3d db 0b 6d be 55 3b 7b 3d 7e c5 12 bd
       0.06208295 -0.23149054 0.06133588 -0.035832874
000350 37 f6 b6 bd 85 0c 94 3d c8 6e d0 3d 04 6a c3 bc
       -0.089336805 0.072289504 0.1017738 -0.023854263
000360 36 e7 f9 be 3c 81 92 3e fb bb 17 3e 5b f6 2d be
       -0.48809212 0.28614223 0.14817803 -0.16988508
000370 b9 f3 8c 3d ae bd c3 3d 5f eb 77 be aa 18 56 3d
       0.06882424 0.09557663 -0.2421088 0.052269615
000380 d8 22 d1 3e 8b e3 9b bc 14 32 9c 3d 6d ff bd bc
       0.40846896 -0.0190294 0.07626739 -0.023193086
000390 65 7e 60 3c c4 96 e3 be 1f 91 5b 3d f5 cd 7c 3e
       0.01370201 -0.44450963 0.053605195 0.24687941
0003a0 89 9b 86 be ad 84 a0 bd e5 3b 0f bd 17 fa 62 be
       -0.2629054 -0.07837806 -0.03496923 -0.22165714
0003b0 bb 65 06 3c 65 d6 54 3d 64 f6 d4 3c 3e a3 55 be
       0.008202965 0.051962275 0.025996394 -0.20863053
0003c0 20 f9 51 3e 80 8a 21 bd 97 ea 5c 3e 6e a4 9c be
       0.2050519 -0.039438725 0.21573864 -0.305942
0003d0 3c dc 65 3d 35 04 95 bd da 88 2e 3e c8 69 04 3f
       0.056118235 -0.07276193 0.17044392 0.5172391
0003e0 61 5f 99 3e 22 3d 86 3c 67 69 b3 3d 6c 7c 00 bd
       0.2995558 0.016386572 0.08760338 -0.031368658
0003f0 11 13 f4 3d 00 4c cc 3e fd df a9 3e 75 ab a0 bd
       0.11917699 0.39901733 0.33178702 -0.07845203

net.0.bias f4 [42]
000000 57 88 8e 3e fd ac c5 bd e0 74 62 3d b3 ed 44 3c
       0.27838394 -0.096521355 0.055287242 0.012019563
000010 07 6a d7 3d bf c4 ac bd e7 ed b0 bc 1b 6e 31 3e
       0.1051827 -0.08435964 -0.021597816 0.17327158
000020 c1 81 0d 3e 9d 76 8b 3c 50 3e 1a 3e df 24 c3 bd
       0.13819028 0.017024333 0.15062833 -0.09528517
000030 86 b7 29 3e 4e 02 c4 bd db 86 e3 bd e1 c3 c3 3c
       0.16573915 -0.09570752 -0.11109706 0.023897113
000040 2d 88 6a 3e 90 9f 11 3e 0d 58 4d 3c cd d9 4c 3d
       0.2290351 0.14221025 0.0125332 0.0500124
000050 ba 0c 3a be 27 dc a1 bd 2c 9f 2f bd 7f ce c1 bd
       -0.18168917 -0.07903319 -0.042876408 -0.09463214
000060 33 30 c4 bd 3e 7f 71 be da d3 a7 3d dc f5 1f be
       -0.09579506 -0.23583695 0.08194704 -0.15621132
000070 45 9d 1f be 66 2f 84 be 3d a2 a2 3e 21 39 61 3c
       -0.15587337 -0.25817412 0.31764403 0.013746531
000080 db 3f b1 3d da 22 88 3d 03 13 fd bd 1c cb 46 3e
       0.086547576 0.066472724 -0.12357142 0.19413418
000090 5d 20 48 be 62 27 7a 3d 98 36 0d 3e bd cf b1 bd
       -0.19543596 0.061072715 0.13790357 -0.08682201
0000a0 2a 33 b8 bd 24 34 f2 bd
       -0.08994134 -0.11826351

net.2.weight f4 [21, 42]
000000 99 0c 88 be 5f 80 03 3e a3 0b 11 be 9f 3e 08 ba
       -0.2657211 0.12841938 -0.14164595 -0.00051973196
000010 c7 42 65 be 50 04 22 be f2 4e a7 bd df b6 42 be
       -0.22388755 -0.15821958 -0.081693545 -0.19015072
000020 a8 e5 16 be 09 ca 98 3b 00 3a 68 ba cf 14 1c be
       -0.14736044 0.0046627563 -0.00088587403 -0.15242313
000030 be 08 ca bd 63 f5 3f 3e 61 1e 05 be f8 71 1f 3e
       -0.09864949 0.18745951 -0.1299987 0.1557082
000040 78 5f 90 3d 68 dc d7 bc 63 cd 4e 3e d7 11 9a be
       0.07049459 -0.026350215 0.20195536 -0.30091736
000050 12 9a fa 3d c8 88 b0 bd ad 32 79 3c f8 84 13 bc
       0.12236418 -0.08619839 0.015209836 -0.00900387
000060 ca a7 17 3f 03 c1 12 bd 53 e2 37 3e 6d 69 d6 3e
       0.592404 -0.0358286 0.1795743 0.41877308
000070 ed 2b 8b bd 4a 12 0f bc c1 d5 a1 3c 76 2e 45 bd
       -0.067954876 -0.008732388 0.019755246 -0.04814001
000080 56 98 ab 3e f3 f1 fd 3d e0 44 5b 3e b7 24 92 be
       0.3351466 0.12399664 0.21412992 -0.28543636
000090 ed 04 83 3c 4f d4 d9 3c 60 06 1a 3e 95 b0 51 be
       0.01599356 0.026590494 0.15041494 -0.20477517
0000a0 20 09 a6 3e 72 c3 05 3e 29 be f9 bd 95 9e a6 3e
       0.32428837 0.13062838 -0.12194473 0.32542863
0000b0 09 14 36 be 33 e5 88 bd 74 d9 6a bd 1c ec 83 3e
       -0.1778108 -0.06684341 -0.057336286 0.25766075
0000c0 24 43 c5 bd c2 14 37 3d 5b a3 5c 3e c9 65 92 3e
       -0.09631947 0.04469753 0.2154669 0.2859328
0000d0 88 3a 09 3c 23 80 7b be 8c 56 1e be df 53 4a bd
       0.008375771 -0.24560599 -0.15462703 -0.049396392
0000e0 88 92 1b 3e 43 20 74 be df 63 1f be f2 37 33 3e
       0.15192616 -0.23840432 -0.15565442 0.1750181
0000f0 be ce 91 bd 50 7c 69 be 5e e1 a4 be 80 bc 68 3e
       -0.07119511 -0.22801328 -0.32203192 0.22728157
000100 6b 92 99 3c 02 53 b2 3d 32 42 3d be fb 96 a5 bc
       0.018746575 0.08707239 -0.18482283 -0.020213595
000110 10 85 07 3e e5 63 25 bc e5 e1 3a 3e af d4 15 3d
       0.13234353 -0.0100946175 0.18250234 0.036579784
000120 3d 2f 25 bd 1e 41 8d be d5 9b 18 3d 35 6d ee 3d
       -0.040328253 -0.27588743 0.037257988 0.11641923
000130 99 bd 00 3e b8 a8 82 3d 7d 2c 20 be 49 d3 8d 3e
       0.12572326 0.06379837 -0.15641971 0.2770026
000140 67 35 6c be 84 49 96 3e cc 02 46 3e 2d 86 b1 3d
       -0.23067246 0.29352963 0.19337004 0.0866817
000150 38 81 b4 bd 72 54 05 bf 32 9c 7b 3d c8 f9 57 bc
       -0.08813709 -0.5208198 0.061428256 -0.013182111
000160 30 87 c6 bd 5f 35 4e be ff 25 2a be 4b bd 38 bc
       -0.09693754 -0.20137547 -0.16616057 -0.0112756
000170 82 4f a0 be d5 04 01 3d a2 70 d9 be 0e f8 29 bd
       -0.3131066 0.03149875 -0.42468745 -0.04149633
000180 aa c0 b1 be 07 6f b5 bb e2 88 81 bd 7e 5f dc b9
       -0.34717304 -0.005536917 -0.063249364 -0.00042032817
000190 19 02 e0 bc 51 ec a1 bd 4d ab 00 3f 2e 56 87 3d
       -0.02734475 -0.07906402 0.50261384 0.06608234
0001a0 d5 a7 f8 bc e3 3a 60 3e 7d 03 85 3e 15 bb d5 3d
       -0.030353466 0.21897464 0.25979224 0.10436074
0001b0 28 16 a1 3d 0d 02 95 3e 35 72 70 be f2 73 88 bc
       0.07865554 0.29103127 -0.23481067 -0.01665685
0001c0 30 82 14 bc 45 35 8b 3d 4d 68 a5 3e 8e c0 d9 3d
       -0.009064242 0.0679727 0.32306138 0.1063243
0001d0 f9 53 9e 3e 69 9e 94 3e f8 41 3e 3e aa 7d 00 be
       0.3092344 0.29027107 0.18579853 -0.12547937
0001e0 22 14 b5 bc 8b e7 33 be 72 0e 9c bd 78 07 82 3e
       -0.022104327 -0.17568795 -0.07619943 0.25396323
0001f0 97 9f a5 bd 84 ba 57 be 81 77 8e bd b8 08 05 bd
       -0.0808708 -0.21067244 -0.06956387 -0.032479018
000200 e6 72 d0 bc d6 84 71 3e ff 8f 19 3e a6 a6 3a be
       -0.025445413 0.23585829 0.14996336 -0.18227634
000210 4c 4c cb bd 34 7b 61 be 94 44 37 3c 98 33 09 3e
       -0.09926662 -0.22019655 0.011185784 0.13398588
000220 ea 56 a8 3d 6b 0e 86 3e 1a aa 44 be fe 3a 9b bd
       0.082197025 0.26182875 -0.19205514 -0.07579611
000230 bb 94 4b be ab cb be bd 84 58 b0 bc aa 99 78 be
       -0.19880955 -0.0931619 -0.021526583 -0.24277368
000240 56 d3 28 3e b3 91 11 bc 9f 05 b2 bd 50 ca 18 3e
       0.16486868 -0.008884835 -0.086924784 0.14920926
000250 2f b0 a9 bd dd bb 3c 3c dd f3 af 3a ec 32 73 bc
       -0.082855575 0.0115193995 0.0013424117 -0.014843684
000260 3d 34 a4 bd b8 6e 96 3d 31 84 62 be 67 5d 60 3d
       -0.08017776 0.07345337 -0.2212074 0.054776575
000270 f3 25 af bc 11 b0 cb bd 6a 29 4f 3e 31 9f a2 bd
       -0.0213804 -0.099456914 0.20230642 -0.079405196
000280 e8 5c d0 3d 8d b9 78 3e 2e f6 0e be d9 7c b2 3e
       0.101739705 0.24289532 -0.13961098 0.34860876
000290 8f 53 ff 3d 93 85 85 bb 9f fb 14 3e bc e8 63 bc
       0.124671094 -0.004074761 0.14549111 -0.013910469
0002a0 61 f4 8e 3c 2d 5a 8d be f7 f1 49 3e a2 83 a3 bd
       0.017450513 -0.2760786 0.19721209 -0.07984091
0002b0 44 b6 0e be d2 bc 8f 3e e8 9b 9f 3e bf 5b 07 bc
       -0.13936716 0.28073746 0.31173635 -0.00826162
0002c0 a5 c6 ce bc 26 c9 e8 bd fb 53 13 39 84 e7 be be
       -0.025241205 -0.11366491 0.00014050298 -0.37286007
0002d0 19 42 d1 bd 41 56 0d be e2 b0 8f 3d 17 29 74 3e
       -0.10217685 -0.13802435 0.070161596 0.238438
0002e0 1e 36 23 3e 22 36 2a 3e 6b e7 9a bd 11 4a cd be
       0.15938613 0.16622213 -0.07563671 -0.4009557
0002f0 3d c3 3e be 1b c3 34 be 2e d4 4e 3e 60 fc 89 be
       -0.18629165 -0.17652552 0.20198128 -0.2695036
000300 1d 5c 30 3e 69 e3 9e 3e 07 1a b4 bd b1 12 9f bd
       0.17222638 0.31032875 -0.08794027 -0.07767237
000310 a5 b4 61 be f9 02 4f bd 22 bf 59 3a 49 ad 36 be
       -0.22041567 -0.050539944 0.0008306374 -0.1783954
000320 27 c7 ff 3d ad c3 45 3d 87 ed 64 3e c0 55 e3 3e
       0.12489157 0.048282314 0.22356234 0.4440136
000330 7d f5 d4 bc cd 88 27 bd 9f a7 09 be 43 54 1e 3e
       -0.025995964 -0.040901948 -0.13442849 0.15461831
000340 29 99 66 be 1e f8 e1 3d d6 88 07 3e b9 dd 03 be
       -0.22519363 0.11033653 0.13235793 -0.12877549
000350 ff 81 7a 3e a2 77 37 3e 68 b9 89 3c e3 f7 a7 3d
       0.24463652 0.1791673 0.016812041 0.082015775
000360 1b a6 e6 3d 14 6e b6 3e 6b ea d0 bc ce d3 15 bd
       0.11262151 0.35630858 -0.025502404 -0.036578946
000370 80 3e 23 3e cd 89 a8 3d 5d a3 b3 bd 8c 5c 1b be
       0.1594181 0.082294084 -0.087713934 -0.15172023
000380 63 2a 24 3e 0d fe af bd 2c 0d 81 be d1 a5 2e 3d
       0.16031794 -0.08593378 -0.25205362 0.042638604
000390 3a be 4e be 2f c9 61 3e d9 26 8c bd 75 ed 77 bd
       -0.20189753 0.22049402 -0.06843347 -0.06052919
0003a0 06 7d 63 3d 90 26 70 be 02 81 0c 3d 13 4c 7c be
       0.055539154 -0.2345221 0.03430272 -0.24638395
0003b0 1d d9 20 3e 79 26 26 3e 2c 94 d6 3d bb 41 e1 3d
       0.15707822 0.16225614 0.1047748 0.10998865
0003c0 b2 6c 41 be c5 df 39 3d cd 1c dd bd 3c 36 9b 3c
       -0.1888912 0.04537942 -0.10796509 0.01894676
0003d0 e5 ae 0c bf 74 e3 f4 3c b4 72 b3 be 9a 06 bb 3d
       -0.5495437 0.029893614 -0.3504845 0.091321185
0003e0 fb 00 91 3d 0f 87 90 3e ba ba 83 3e 41 2c 69 be
       0.07080265 0.28228042 0.257284 -0.22770788
0003f0 45 cf 16 3d ab a8 c9 3e 6e 17 6d 3e 63 99 a8 bd
       0.03681876 0.39386496 0.23153469 -0.08232381

net.2.bias f4 [21]
000000 cd 3b fc 3b 83 e9 4b be e6 bb 33 3e 96 71 13 bd
       0.0076975585 -0.19913296 0.17552146 -0.035996996
000010 3f d2 d0 3c 70 31 9a 3b ea 14 29 be 99 56 4c bd
       0.025490878 0.0047056004 -0.16511884 -0.049887273
000020 39 b6 3b be 9c c2 84 bd 87 f3 fa 3d 43 42 14 bd
       -0.18331231 -0.06482431 0.122534804 -0.036196005
000030 77 05 39 3e 94 6a c7 3e 5b a9 d2 3a 0d f3 13 bd
       0.18068491 0.389485 0.00160722 -0.036120463
000040 ae 2b e1 bc 47 61 02 be b1 5f 7d 3e f0 df ca 3d
       -0.027486648 -0.12732421 0.24743535 0.09905994
000050 9e 6b 8a 3d
       0.067588076
