models/seven_net.pth (torch_old, 8138 bytes, 4 tensors)

net.0.weight f4 [42, 21]
00000000: 3011 823d 8e1c f33d 62f4 b1bc 66ec 613d
00000010: 0c85 823d 1577 113d bffd 1cbe 4448 8abd
00000020: 7df5 533e e9c7 82bd e306 9abe 0baf 843d
00000030: 02b6 8fbd 6c82 6e3e 6144 bfbe 5717 8a3d
00000040: 0dae 14be 8311 593e 358b 7fbd a730 84bc
00000050: 0a6e a83d fd57 813e ae2c 013e 1939 33be
00000060: 848a 383e ea9d 0d3d 8460 353e b0aa 53bd
00000070: 0786 61bd 98d3 753d f933 84be c982 3abc
00000080: 5852 843e 0c32 1abd 56bc aa3d bd7d 32bd
00000090: bd7e 53bd 8aea 2e3d 6ffe 213e 9ef7 d43d
000000a0: 0605 7dbe b3d1 1f3e 1258 6abe f591 a63c
000000b0: 0f2b 86be a869 7cbe a8ca 413e 3ac7 523d
000000c0: ba01 09be 840d eabd 0417 1abe cd4a 133e
000000d0: b214 66be 059f 943e 6dd3 5bbe 9018 2ebe
000000e0: b839 aa3d c1c5 e2bc 94d5 1c3e 0ae9 44bd
000000f0: 87d2 12be 660f 47be 5c61 4ebe 4275 93be
00000100: 6ce5 0d3d 5b31 dc3d 3a25 1cbe 1e67 323e
00000110: c7e1 3a3e 78e4 27bd b917 eb3c 1dd6 d4bd
00000120: 246b b03d e7c8 253e f8d7 78be a7bf bd3d
00000130: 7955 8f3d 403a 8ebd 6e9b bfbd c501 bcbd
00000140: 24a0 403d 9248 36bd 0776 5abe 8fdd 063e
00000150: 759e 9ebe cd7f 3fbe 1e0f af3b b89f 4cbd
00000160: eac6 55bb 17b1 fa3a a90c 52bd 29f4 353e
00000170: f1bc 1dbe 2f0c 303d b859 a6be a79f b5be
00000180: a022 91bd 31de 70be f6dd 00be b122 80be
00000190: 90c1 2b3d aacc ce3d 60f8 ce3d bb4a 653e
000001a0: c6ac a3bc ee66 23be ac58 383d 6f02 2a3d
000001b0: 7b59 98be 9da5 073d f58d 26bd 67df 03be
000001c0: 902b 413e 2665 cfbe 121b 59bb fb4a 5f3d
000001d0: 45aa 82bd 9ef6 2a3e 5a70 8fbe 96e4 133e
000001e0: 1c0b 80be acc4 043e 5832 183e bd9a 953d
000001f0: f9c9 49be 2226 4b3c 9677 62bd 1139 49bd
00000200: 3038 843d 0f13 27be db4c 6cbe 9189 ebbd
00000210: 2014 11be 5642 c0bc 84a1 103e acdc 763e
00000220: 2036 56be bdf5 d53d ad92 bd3d 5930 933e
00000230: 3594 04be d668 143e aa13 883d 1111 d0bd
00000240: dbce 403e 14a4 023e 437a 723e 2c0d 87bc
00000250: 9a27 f43d cf68 ad3d 281f 833e 7623 13bd
00000260: 2cb8 89be 820c 5dbe 8d38 0abe d883 59bd
00000270: 958b 503e 0768 bd3d ea3a e73d 8194 383d
00000280: 4dea 303d ebda 1d3d d049 90bd df75 3e3e
00000290: 9dee 3ebd fd2f 09be d0e3 34be 4ab9 47be
000002a0: 680f 57bd 9b0f 58be 120f 033e 7ef9 1c3e
000002b0: 01d9 cbbd b91e 55be 694f ea3d ead2 ddbd
000002c0: 01b1 313e 1888 16bd 0bf6 843e 9bb8 0ebe
000002d0: bf0b 33bd a586 96bd 6e26 423e b6e2 183e
000002e0: a183 703e 8de6 2cbe a462 da3c a888 96bd
000002f0: b62c 0ebe 04b0 433d 5341 60be dcc9 2a3e
00000300: 77fb 91bd 47da 9b3d 3771 853e a107 483e
00000310: d92c fc3d 1b92 15bd d64f ed3d f1e7 b93e
00000320: 2fba 863e 7678 f3bd 7bdf 45be 2511 12be
00000330: da54 163e ad75 39be 50de 573e 930e 2ebd
00000340: 9246 163e 8c12 96bd b627 8fbe 991a 583e
00000350: ea0f 983d 1bad babd 1180 9abe 399f 93be
00000360: a09e 4b3e f11a 2cbe 19c2 02be de6a 0d3e
00000370: 512d f33d 036e 183e 37cf 1dbe e3d2 1bbe
00000380: 514e 543e 9775 2b3e 80fd 34be 9b51 45be
00000390: 8773 12be 5a46 42bc ea2d 8dbd 0d79 4e3e
000003a0: 54ff 0fbe fd35 cabc 8203 d4bc 7a29 163d
000003b0: 8e77 fb3b ed81 373e ee07 ea3d 70d5 913e
000003c0: ad99 d8bd 96e8 21be ff3d 7e3e 1356 7dbe
000003d0: ba76 ac3e 38c4 2ebe 6fa1 123d b76e b33d
000003e0: 483c d7bd af5c 8bbe b284 343e 7ca2 e33d
000003f0: 70f2 d2bc 613c aabd 1665 373e 82d4 aabd
0.063509345 0.11870681 -0.021722976 0.055157088 0.06373033 0.035513956 -0.15331171 -0.06752065
0.20699115 -0.06385786 -0.3008338 0.06478699 -0.07017137 0.2329194 -0.37356856 0.06742733
-0.1451952 0.21198086 -0.062388618 -0.01613648 0.08224113 0.25262442 0.126147 -0.1750225
0.1802159 0.034574427 0.17712599 -0.051676452 -0.05505946 0.060016245 -0.25820902 -0.011383721
0.25844073 -0.037645385 0.083367035 -0.043576945 -0.05163454 0.042704143 0.15819715 0.10398792
-0.24708948 0.15607338 -0.22885159 0.02033327 -0.26204726 -0.2464968 0.18924963 0.05145953
-0.13379565 -0.11428359 -0.15047842 0.14384003 -0.22468832 0.29027572 -0.21467371 -0.17001557
0.0831179 -0.027682187 0.15315849 -0.048073806 -0.14338122 -0.19439468 -0.20154327 -0.28800398
0.034642622 0.10751601 -0.15248576 0.17422149 0.1825019 -0.04098937 0.028697835 -0.10392401
0.086141855 0.1618992 -0.24301136 0.092650704 0.069987245 -0.06944704 -0.09355818 -0.09180025
0.047027722 -0.044502802 -0.21334086 0.13170455 -0.30980268 -0.18701096 0.0053423783 -0.049957007
-0.0032619783 0.0019126263 -0.051281605 0.17768921 -0.15404107 0.04298037 -0.32490325 -0.35473368
-0.07086682 -0.2352226 -0.12584671 -0.25026467 0.041932642 0.1009763 0.101059675 0.22391789
-0.019979846 -0.15957233 0.04500644 0.041506227 -0.29755768 0.033116926 -0.040662725 -0.1287819
0.18864274 -0.40506858 -0.0033127707 0.054514866 -0.063801326 0.1669564 -0.28015405 0.14442667
-0.25008476 0.1296565 0.14862955 0.073049046 -0.19705953 0.012399228 -0.055289827 -0.04912669
0.064560294 -0.16315864 -0.23076193 -0.11500848 -0.14167833 -0.023469131 0.14124113 0.24107617
-0.20919085 0.104472615 0.09256492 0.28747824 -0.12947161 0.14493117 0.066443756 -0.10159505
0.18828909 0.12757903 0.23679452 -0.016485773 0.11921616 0.08467256 0.25609708 -0.03592249
-0.26898324 -0.21586803 -0.13498135 -0.05310425 0.20365746 0.09248357 0.11290534 0.0450635
0.043192197 0.038538855 -0.070453286 0.18599652 -0.046614278 -0.13397212 -0.17665029 -0.19504276
-0.052504927 -0.21099703 0.12798718 0.15329549 -0.099534996 -0.20812501 0.114409275 -0.10831244
0.17352678 -0.036750883 0.25968966 -0.13937609 -0.043712374 -0.073499 0.18959972 0.14930233
0.23487712 -0.16884823 0.026658364 -0.07350284 -0.13884243 0.047775283 -0.21899919 0.16678566
-0.07128041 0.076099925 0.2606294 0.1953416 0.123132415 -0.03651629 0.11587493 0.3630977
0.26313922 -0.118882105 -0.19323532 -0.14264353 0.14680806 -0.18111296 0.21080899 -0.042494368
0.14675358 -0.07327756 -0.27959985 0.21103896 0.0742491 -0.091150485 -0.30175832 -0.28832415
0.1988473 -0.16807152 -0.12769355 0.13810298 0.11873878 0.14885716 -0.15411077 -0.15217166
0.20733 0.16744076 -0.17674828 -0.19269411 -0.14301883 -0.011857593 -0.06893523 0.20163365
-0.14062244 -0.024683947 -0.025880579 0.03666065 0.007674164 0.17920657 0.11427294 0.28483152
-0.10576186 -0.1581138 0.24828337 -0.24739866 0.3368433 -0.17067039 0.035798486 0.087613516
-0.105095446 -0.2721915 0.17628744 0.11114976 -0.025750369 -0.083122976 0.17909655 -0.08341314

net.0.bias f4 [42]
00000000: afde 223e 65cf a13d 2fbd 28be 1974 38bd
00000010: 68cd a2bc 3ced 1dbe 82f3 5e3e 6e4c 3dbe
00000020: 708d c83b bd77 95bd 9cb3 003b b570 973d
00000030: 08dc 4cbe 8cdc 383e 81ea 163d 75e6 10be
00000040: 7fc7 96bb 3457 4abe fb3b bd3d 3210 053e
00000050: adfa 273e 1a90 263e 0215 eebd 9bb9 263e
00000060: 32a9 0e3e 7fee 983d 6bf2 ef3c 09ee 2cbc
00000070: 2909 093e 6c0b f1bd 966c b3bd c65c 78bd
00000080: 3fc1 423d c1fc 893d 8062 0e3e b6fc c8bd
00000090: c78b 503b e128 8f3d 7c4f b4bc 07e4 253e
000000a0: a285 11bd b742 f13d
0.1590526 0.079008855 -0.16478418 -0.045032594 -0.019873336 -0.15422529 0.21772578 -0.18486187
0.0061203763 -0.07298229 0.0019638306 0.07394544 -0.2000581 0.18052882 0.036844734 -0.14150412
-0.0046014185 -0.19759828 0.09239956 0.1299446 0.16404219 0.16265908 -0.11625101 0.1628174
0.1393173 0.074673645 0.029290399 -0.010554799 0.133824 -0.11769757 -0.087609455 -0.06063535
0.047547575 0.06737662 0.13904762 -0.09813826 0.0031821595 0.06990219 -0.022010557 0.16200267
-0.035527833 0.11780303

net.2.weight f4 [21, 42]
00000000: 365b 16bd 7d57 bebd b5a1 4dbe 27d8 763e
00000010: ab42 283e bf4e a43d e80f 823e 7712 573d
00000020: 88ed a3bd 8961 963d 62c4 d9bd c59b 17be
00000030: 90a1 f13d 7297 533d c658 4fbd 5dbf 2b3d
00000040: d5de 5abd 5ec0 a83d d3e9 4b3e 6b3e 893e
00000050: 31ff acbd 3940 db3d ba2e 833e 53e5 f83d
00000060: ec6a 75be 325a 263e c2dd 43be 0fb1 4fbe
00000070: dce7 5b3b a92e a13e aee0 5cbe 4b0f e3bd
00000080: e47f 1f3e d223 efbd 0906 e73d 19d9 c3bd
00000090: d60c 97bc 103e 9cbd e675 a4bc be94 1fbe
000000a0: 1249 283e b4b0 ae3d 64fd a53d f904 083e
000000b0: f6c8 ec3d ced1 d0bd 45f1 dd3d b944 203d
000000c0: af7a 2a3b 4239 d73d 0297 54bd 0afa 92be
000000d0: d779 5a3c 089e 463e 94c2 c3bc 4a44 393e
000000e0: a2b7 5bbe f6ec 11bc aa15 083c 3266 883e
000000f0: 9543 7d3d 8e72 0ebe 00c6 993d e967 8e3d
00000100: a40b 3cbe 7d7e 0dbe 04f4 233e 1dba 82be
00000110: 9b6c d7bd bc19 6a3e 7d71 173b 719e 5ebd
00000120: 5ba1 d33d b3f1 a3bd 53a8 94bd 1ab4 443e
00000130: a982 353d a31a febd 8ab5 4cbe c3a2 643e
00000140: 68d8 a0bd 317a 3bbd 0af5 9ebd 8b24 8bbd
00000150: c6f4 343d 299f 88ba 8c5f 613e 8889 dfbb
00000160: dee7 b93b 211b 31be 4200 8f3d 19af aa3c
00000170: 5cf1 2cbe fab7 f3bc 5bac 6b3e 632a f03c
00000180: 46fe 0d3e 4398 ae3d ac76 963c 111f 88bd
00000190: 5207 e53d 08d7 c3bd 2770 b7bd 663a 443e
000001a0: 445b cbbd f770 2dbe 1fda 033e 3e9d 49be
000001b0: 6076 3cbe a0ea 253e 9cc2 09bd 86e9 da3d
000001c0: d82f e73d b559 90bd 74ea 3bbe a13e 18be
000001d0: 2b7a 10bd 7949 123d c7f3 583e fc06 dfbd
000001e0: 7433 593c d47d 10bc 7fef fe3d 0850 91bd
000001f0: 591b d4bc feb3 7b3c cbb4 8b3e b2a2 a7bd
00000200: c933 dbbd b592 04bd c9c9 bc3c 667b 85be
00000210: 0a88 e23d d85e 9bbd e4b8 b2bd 9ff3 30be
00000220: 911e ea3c e71c d6bc 422e 843e fbe7 89bd
00000230: 93ba f73d fd32 53be 5f41 36bc 7392 943e
00000240: 9fe2 1abe 813f b53d dffc 53bd 7d14 9dbc
00000250: 3160 cc3d 14f3 cd3d aecc 9fbd 5088 59bd
00000260: 55af e4bd 0be9 93bd d992 e63d 97ca 313e
00000270: 74bd 273e cb89 32be dc1b ca3c ea55 0abe
00000280: 2449 833c 83cf ea3d 4c1b e3bd a710 053e
00000290: 2480 a1be aff1 8f3d 0e0e 58be 1600 fe3d
000002a0: f21f 00be 12a6 ac3c 2d6a 143e b1b9 e43d
000002b0: 73e2 83bb 3a6e e9bd e684 4fbe 1afc ab3d
000002c0: 0f5d 0d3e 7114 27bd 6e8c 2fbd 22dc 66be
000002d0: c899 7abd 85ab bbbc 6d1f c0bc 7d07 753e
000002e0: ec25 4dbd faa9 463d 3a25 e53c eff2 d73d
000002f0: a0f8 c1bd 0486 cd3d 6181 7abe 052a ef3c
00000300: defd ecbc 66f3 8abd 1289 6ebc fb7f 0fbd
00000310: a22e 473d e639 ba3d 3476 ebbb 9a2f 9a3d
00000320: 74a9 a8be 5414 1abe 09d9 2ebd c0c8 0fbe
00000330: 1250 5ebd 7476 043e 3e09 8d3e a7cc bcbd
00000340: 34d6 943e ff8b 0b3e 6171 2cbd 87b7 2b3d
00000350: bf62 68bc 5dd1 773d 47d2 0abd 104b 273e
00000360: bb6d 80bd ed57 1e3a 7a66 7a3d 5ab3 7c3e
00000370: 72e3 393d 8eaa 24be 07bc 4b3e 8494 8abc
00000380: 18eb 6fbe 58b8 68bd 292c 2d3d f8c8 2c3e
00000390: 9723 eebb 03f2 8b3e 5723 96bc caa0 e3ba
000003a0: b6ab 06be 85e4 3bbc eb26 acbe 6472 14bd
000003b0: bd28 58be 6483 13be f56e c73a 9bf2 e739
000003c0: 24c5 c33c f15c 91be 1e83 c03d cfb0 dcbd
000003d0: 0445 783b 4de1 1ebe 6eb1 fe3c 744e af3d
000003e0: d177 45bc 0a8c 0d3e a4bf ecbd db28 193e
000003f0: a369 a93d 88d1 8b3e b9f9 0e3e af6a 15be
-0.03670808 -0.09294031 -0.20081218 0.24105893 0.16431682 0.08022832 0.2540276 0.052507844
-0.0800429 0.07342822 -0.1063316 -0.14805515 0.11798394 0.0516581 -0.05062177 0.041930545
-0.053435165 0.08239816 0.19913416 0.26805434 -0.084471114 0.10705609 0.25621587 0.12153115
-0.23966569 0.16245344 -0.19127563 -0.20282386 0.0033554947 0.3148091 -0.21570083 -0.11086901
0.1557613 -0.11676754 0.11280448 -0.095628925 -0.018438738 -0.07629025 -0.02007575 -0.15584084
0.16434124 0.08529797 0.08104971 0.13283147 0.11561768 -0.10196267 0.10837034 0.03912804
0.0026013067 0.10508968 -0.051901825 -0.2870639 0.013334713 0.19396222 -0.023896493 0.18092456
-0.21456769 -0.008906594 0.008305946 0.2664047 0.06183203 -0.13910887 0.07508469 0.06953413
-0.18363816 -0.13817783 0.16011053 -0.25532618 -0.10518762 0.2286138 0.0023108416 -0.05435032
0.103335105 -0.08005085 -0.07258668 0.19209328 0.04431406 -0.12407424 -0.19991127 0.22327714
-0.07853776 -0.045770828 -0.07761581 -0.067940794 0.044178747 -0.001042341 0.22009104 -0.006821815
0.0056733927 -0.17295505 0.06982471 0.020835446 -0.16888946 -0.029750813 0.23014967 0.029317087
0.13866529 0.08525135 0.018367134 -0.066465504 0.11183037 -0.09562498 -0.08956938 0.19162902
-0.09929517 -0.16937624 0.12876175 -0.1968889 -0.18404531 0.16202784 -0.03363286 0.10689072
0.11288422 -0.0704836 -0.18351156 -0.14867641 -0.03527276 0.0357146 0.21186744 -0.10890004
0.013256896 -0.008819062 0.12448024 -0.07095343 -0.025891947 0.015362738 0.27286372 -0.081853285
-0.107032366 -0.032366473 0.023045437 -0.26070708 0.11061104 -0.075864494 -0.08726671 -0.17280434
0.028579028 -0.026136829 0.25816542 -0.067337 0.12096133 -0.20624919 -0.011123984 0.29017982
-0.15125512 0.08850003 -0.05175483 -0.019174809 0.099792846 0.10056129 -0.078027114 -0.053108513
-0.111662544 -0.07222184 0.11258478 0.17362438 0.16380864 -0.17435376 0.024671488 -0.13509336
0.016026087 0.11465361 -0.11089191 0.12994634 -0.31543076 0.07028519 -0.21099111 0.1240236
-0.12512186 0.021075282 0.14493628 0.1116823 -0.0040247976 -0.11397977 -0.2026554 0.08397694
0.1380503 -0.04079098 -0.042858534 -0.22544912 -0.061181813 -0.022908935 -0.023452485 0.23928638
-0.050084993 0.048501946 0.027971853 0.10544383 -0.094712496 0.10035327 -0.24463417 0.029194841
-0.028929647 -0.06784706 -0.014559047 -0.03503416 0.048628457 0.090930745 -0.007185722 0.075286105
-0.32941782 -0.15046817 -0.04268745 -0.14041424 -0.05427558 0.12935811 0.27546114 -0.09218722
0.29069674 0.13627623 -0.042100314 0.041923072 -0.014183699 0.0605024 -0.033891942 0.16337228
-0.062709294 0.00060403236 0.061132886 0.24677792 0.045382924 -0.16080686 0.19895945 -0.01691652
-0.23429525 -0.05681643 0.042278443 0.16873538 -0.0072674262 0.27333078 -0.018327398 -0.0017366644
-0.1315144 -0.0114680575 -0.33623442 -0.036241904 -0.2110929 -0.1440559 0.0015215563 0.0004424051
0.023897715 -0.2839122 0.094000086 -0.10775911 0.0037882933 -0.15515633 0.031090464 0.085598856
-0.012052492 0.13822952 -0.1155999 0.14956991 0.08272102 0.27308297 0.13962449 -0.14591478

net.2.bias f4 [21]
00000000: 2c3c 50bd e914 a53c 16aa 22be 5f0b 513d
00000010: 7e4a d83d 2b90 b53d efc8 ddbd f0ed dd3d
00000020: 7ff6 04bd d6f9 c93c a2cf 14bc 2563 cbbd
00000030: 8bad e73d f139 d03c 9380 2bbe 41a6 643d
00000040: 95a8 dd3d 4186 7bbd c91a c23d a9d1 a33c
00000050: e6f4 ae3d
-0.050838634 0.020151572 -0.15885195 0.051036235 0.10561083 0.088653885 -0.10829341 0.108363986
-0.03246164 0.024655264 -0.009082707 -0.0993102 0.113123976 0.025418254 -0.16748266 0.055822615
0.1082317 -0.06140733 0.09477765 0.019997435 0.085428044
